==========================================================================================================================================================================
Layer (type:depth-idx)                        Input Shape               Output Shape              Param #                   Kernel Shape              Mult-Adds
==========================================================================================================================================================================
FrozenBackboneMobileNet                       [1, 3, 224, 224]          [1, 2]                    --                        --                        --
├─Sequential: 1-1                             [1, 3, 224, 224]          [1, 256, 1, 1]            --                        --                        --
│    └─ConvBlock: 2-1                         [1, 3, 224, 224]          [1, 8, 112, 112]          --                        --                        --
│    │    └─Conv2d: 3-1                       [1, 3, 224, 224]          [1, 8, 112, 112]          (216)                     [3, 3]                    2,709,504
│    │    └─BatchNorm2d: 3-2                  [1, 8, 112, 112]          [1, 8, 112, 112]          (16)                      --                        16
│    │    └─ReLU: 3-3                         [1, 8, 112, 112]          [1, 8, 112, 112]          --                        --                        --
│    └─Sequential: 2-2                        [1, 8, 112, 112]          [1, 16, 112, 112]         --                        --                        --
│    │    └─DwsConvBlock: 3-4                 [1, 8, 112, 112]          [1, 16, 112, 112]         --                        --                        --
│    │    │    └─ConvBlock: 4-1               [1, 8, 112, 112]          [1, 8, 112, 112]          (88)                      --                        903,184
│    │    │    └─ConvBlock: 4-2               [1, 8, 112, 112]          [1, 16, 112, 112]         (160)                     --                        1,605,664
│    └─Sequential: 2-3                        [1, 16, 112, 112]         [1, 32, 56, 56]           --                        --                        --
│    │    └─DwsConvBlock: 3-5                 [1, 16, 112, 112]         [1, 32, 56, 56]           --                        --                        --
│    │    │    └─ConvBlock: 4-3               [1, 16, 112, 112]         [1, 16, 56, 56]           (176)                     --                        451,616
│    │    │    └─ConvBlock: 4-4               [1, 16, 56, 56]           [1, 32, 56, 56]           (576)                     --                        1,605,696
│    │    └─DwsConvBlock: 3-6                 [1, 32, 56, 56]           [1, 32, 56, 56]           --                        --                        --
│    │    │    └─ConvBlock: 4-5               [1, 32, 56, 56]           [1, 32, 56, 56]           (352)                     --                        903,232
│    │    │    └─ConvBlock: 4-6               [1, 32, 56, 56]           [1, 32, 56, 56]           (1,088)                   --                        3,211,328
│    └─Sequential: 2-4                        [1, 32, 56, 56]           [1, 64, 28, 28]           --                        --                        --
│    │    └─DwsConvBlock: 3-7                 [1, 32, 56, 56]           [1, 64, 28, 28]           --                        --                        --
│    │    │    └─ConvBlock: 4-7               [1, 32, 56, 56]           [1, 32, 28, 28]           (352)                     --                        225,856
│    │    │    └─ConvBlock: 4-8               [1, 32, 28, 28]           [1, 64, 28, 28]           (2,176)                   --                        1,605,760
│    │    └─DwsConvBlock: 3-8                 [1, 64, 28, 28]           [1, 64, 28, 28]           --                        --                        --
│    │    │    └─ConvBlock: 4-9               [1, 64, 28, 28]           [1, 64, 28, 28]           (704)                     --                        451,712
│    │    │    └─ConvBlock: 4-10              [1, 64, 28, 28]           [1, 64, 28, 28]           (4,224)                   --                        3,211,392
│    └─Sequential: 2-5                        [1, 64, 28, 28]           [1, 128, 14, 14]          --                        --                        --
│    │    └─DwsConvBlock: 3-9                 [1, 64, 28, 28]           [1, 128, 14, 14]          --                        --                        --
│    │    │    └─ConvBlock: 4-11              [1, 64, 28, 28]           [1, 64, 14, 14]           (704)                     --                        113,024
│    │    │    └─ConvBlock: 4-12              [1, 64, 14, 14]           [1, 128, 14, 14]          (8,448)                   --                        1,605,888
│    │    └─DwsConvBlock: 3-10                [1, 128, 14, 14]          [1, 128, 14, 14]          --                        --                        --
│    │    │    └─ConvBlock: 4-13              [1, 128, 14, 14]          [1, 128, 14, 14]          (1,408)                   --                        226,048
│    │    │    └─ConvBlock: 4-14              [1, 128, 14, 14]          [1, 128, 14, 14]          (16,640)                  --                        3,211,520
│    │    └─DwsConvBlock: 3-11                [1, 128, 14, 14]          [1, 128, 14, 14]          --                        --                        --
│    │    │    └─ConvBlock: 4-15              [1, 128, 14, 14]          [1, 128, 14, 14]          (1,408)                   --                        226,048
│    │    │    └─ConvBlock: 4-16              [1, 128, 14, 14]          [1, 128, 14, 14]          (16,640)                  --                        3,211,520
│    │    └─DwsConvBlock: 3-12                [1, 128, 14, 14]          [1, 128, 14, 14]          --                        --                        --
│    │    │    └─ConvBlock: 4-17              [1, 128, 14, 14]          [1, 128, 14, 14]          (1,408)                   --                        226,048
│    │    │    └─ConvBlock: 4-18              [1, 128, 14, 14]          [1, 128, 14, 14]          (16,640)                  --                        3,211,520
│    │    └─DwsConvBlock: 3-13                [1, 128, 14, 14]          [1, 128, 14, 14]          --                        --                        --
│    │    │    └─ConvBlock: 4-19              [1, 128, 14, 14]          [1, 128, 14, 14]          (1,408)                   --                        226,048
│    │    │    └─ConvBlock: 4-20              [1, 128, 14, 14]          [1, 128, 14, 14]          (16,640)                  --                        3,211,520
│    │    └─DwsConvBlock: 3-14                [1, 128, 14, 14]          [1, 128, 14, 14]          --                        --                        --
│    │    │    └─ConvBlock: 4-21              [1, 128, 14, 14]          [1, 128, 14, 14]          (1,408)                   --                        226,048
│    │    │    └─ConvBlock: 4-22              [1, 128, 14, 14]          [1, 128, 14, 14]          (16,640)                  --                        3,211,520
│    └─Sequential: 2-6                        [1, 128, 14, 14]          [1, 256, 7, 7]            --                        --                        --
│    │    └─DwsConvBlock: 3-15                [1, 128, 14, 14]          [1, 256, 7, 7]            --                        --                        --
│    │    │    └─ConvBlock: 4-23              [1, 128, 14, 14]          [1, 128, 7, 7]            (1,408)                   --                        56,704
│    │    │    └─ConvBlock: 4-24              [1, 128, 7, 7]            [1, 256, 7, 7]            (33,280)                  --                        1,606,144
│    │    └─DwsConvBlock: 3-16                [1, 256, 7, 7]            [1, 256, 7, 7]            --                        --                        --
│    │    │    └─ConvBlock: 4-25              [1, 256, 7, 7]            [1, 256, 7, 7]            (2,816)                   --                        113,408
│    │    │    └─ConvBlock: 4-26              [1, 256, 7, 7]            [1, 256, 7, 7]            (66,048)                  --                        3,211,776
│    └─AdaptiveAvgPool2d: 2-7                 [1, 256, 7, 7]            [1, 256, 1, 1]            --                        --                        --
├─Linear: 1-2                                 [1, 256]                  [1, 2]                    514                       --                        514
==========================================================================================================================================================================
Total params: 213,586
Trainable params: 514
Non-trainable params: 213,072
Total mult-adds (Units.MEGABYTES): 40.78
==========================================================================================================================================================================
…
